…
Finally, notice that inception\_v3 requires the input size to be
(299,299), whereas all of the other models expect (224,224).

Resnet
~~~~~~

Resnet was introduced in the paper `Deep Residual Learning for Image
Recognition <https://arxiv.org/abs/1512.03385>`__. There are several
variants of different sizes, including Resnet18, Resnet34, Resnet50,
Resnet101, and Resnet152, all of which are available from torchvision
models. Here we use Resnet18, as our dataset is small and only has two
classes. When we print the model, we see that the last layer is a fully
connected layer as shown below:

::

    (fc): Linear(in_features=512, out_features=1000, bias=True) 

Thus, we must reinitialize ``model.fc`` to be a Linear layer with 512
input features and 2 output features with:

::

    model.fc = nn.Linear(512, num_classes)

Alexnet
~~~~~~~

Alexnet was introduced in the paper `ImageNet Classification with Deep
Convolutional Neural
Networks <https://papers.nips.cc/paper/4824-imagenet-classification-with-deep-convolutional-neural-networks.pdf>`__
and was the first very successful CNN on the ImageNet dataset. When we
print the model architecture, we see the model output comes from the 6th
layer of the classifier

::

    (classifier): Sequential(
        ...
        (6): Linear(in_features=4096, out_features=1000, bias=True)
     ) 

To use the model with our dataset we reinitialize this layer as

::

    model.classifier[6] = nn.Linear(4096,num_classes)

VGG
~~~

VGG was introduced in the paper `Very Deep Convolutional Networks for
Large-Scale Image Recognition <https://arxiv.org/pdf/1409.1556.pdf>`__.
Torchvision offers eight versions of VGG with various lengths and some
that have batch normalizations layers. Here we use VGG-11 with batch
normalization. The output layer is similar to Alexnet, i.e.

::

    (classifier): Sequential(
        ...
        (6): Linear(in_features=4096, out_features=1000, bias=True)
     )

Therefore, we use the same technique to modify the output layer

::

    model.classifier[6] = nn.Linear(4096,num_classes)

Squeezenet
~~~~~~~~~~

The Squeeznet architecture is described in the paper `SqueezeNet:
AlexNet-level accuracy with 50x fewer parameters and <0.5MB model
size <https://arxiv.org/abs/1602.07360>`__ and uses a different output
structure than any of the other models shown here. Torchvision has two
versions of Squeezenet, we use version 1.0. The output comes from a 1x1
convolutional layer which is the 1st layer of the classifier:

::

    (classifier): Sequential(
        (0): Dropout(p=0.5)
        (1): Conv2d(512, 1000, kernel_size=(1, 1), stride=(1, 1))
        (2): ReLU(inplace)
        (3): AvgPool2d(kernel_size=13, stride=1, padding=0)
     ) 

To modify the network, we reinitialize the Conv2d layer to have an
output feature map of depth 2 as

::

    model.classifier[1] = nn.Conv2d(512, num_classes, kernel_size=(1,1), stride=(1,1))

Densenet
~~~~~~~~

Densenet was introduced in the paper `Densely Connected Convolutional
Networks <https://arxiv.org/abs/1608.06993>`__. Torchvision has four
variants of Densenet but here we only use Densenet-121. The output layer
is a linear layer with 1024 input features:

::

    (classifier): Linear(in_features=1024, out_features=1000, bias=True) 

To reshape the network, we reinitialize the classifier's linear layer as

::

    model.classifier = nn.Linear(1024, num_classes)

Inception v3
~~~~~~~~~~~~

Finally, Inception v3 was first described in `Rethinking the Inception
Architecture for Computer
Vision <https://arxiv.org/pdf/1512.00567v1.pdf>`__. This network is
unique because it has two output layers when training. The second output
is known as an auxiliary output and is contained in the AuxLogits part
of the network. The primary output is a linear layer at the end of the
network. Note, when testing we only consider the primary output. The
auxiliary output and primary output of the loaded model are printed as:

::

    (AuxLogits): InceptionAux(
        ...
        (fc): Linear(in_features=768, out_features=1000, bias=True)
     )
     ...
    (fc): Linear(in_features=2048, out_features=1000, bias=True)

To finetune this model we must reshape both layers. This is accomplished
with the following

::

    model.AuxLogits.fc = nn.Linear(768, num_classes)
    model.fc = nn.Linear(2048, num_classes)

Notice, many of the models have similar output structures, but each must
be handled slightly differently. Also, check out the printed model
architecture of the reshaped network and make sure the number of output
…
            # Handle the primary net
            num_ftrs = model_ft.fc.in_features
            model_ft.fc = nn.Linear(num_ftrs,num_classes)
            input_size = 299

        else:
            print("Invalid model name, exiting...")
            exit()
    
        return model_ft, input_size

    # Initialize the model for this run
    model_ft, input_size = initialize_model(model_name, num_classes, feature_extract, pt=True)

    # Print the model we just instantiated
    print(model_ft) 






.. rst-class:: sphx-glr-script-out

 Out:

 .. code-block:: none

    DenseNet(
      (features): Sequential(
        (conv0): Conv2d(3, 64, kernel_size=(7, 7), stride=(2, 2), padding=(3, 3), bias=False)
        (norm0): BatchNorm2d(64, eps=1e-05, momentum=0.1, affine=True, track_running_stats=True)
        (relu0): ReLU(inplace)
        (pool0): MaxPool2d(kernel_size=3, stride=2, padding=1, dilation=1, ceil_mode=False)
        (denseblock1): _DenseBlock(
          (denselayer1): _DenseLayer(
            (norm1): BatchNorm2d(64, eps=1e-05, momentum=0.1, affine=True, track_running_stats=True)
            (relu1): ReLU(inplace)
            (conv1): Conv2d(64, 128, kernel_size=(1, 1), stride=(1, 1), bias=False)
            (norm2): BatchNorm2d(128, eps=1e-05, momentum=0.1, affine=True, track_running_stats=True)
            (relu2): ReLU(inplace)
            (conv2): Conv2d(128, 32, kernel_size=(3, 3), stride=(1, 1), padding=(1, 1), bias=False)
          )
          (denselayer2): _DenseLayer(
            (norm1): BatchNorm2d(96, eps=1e-05, momentum=0.1, affine=True, track_running_stats=True)
            (relu1): ReLU(inplace)
            (conv1): Conv2d(96, 128, kernel_size=(1, 1), stride=(1, 1), bias=False)
            (norm2): BatchNorm2d(128, eps=1e-05, momentum=0.1, affine=True, track_running_stats=True)
            (relu2): ReLU(inplace)
            (conv2): Conv2d(128, 32, kernel_size=(3, 3), stride=(1, 1), padding=(1, 1), bias=False)
          )
          (denselayer3): _DenseLayer(
            (norm1): BatchNorm2d(128, eps=1e-05, momentum=0.1, affine=True, track_running_stats=True)
            (relu1): ReLU(inplace)
            (conv1): Conv2d(128, 128, kernel_size=(1, 1), stride=(1, 1), bias=False)
            (norm2): BatchNorm2d(128, eps=1e-05, momentum=0.1, affine=True, track_running_stats=True)
            (relu2): ReLU(inplace)
            (conv2): Conv2d(128, 32, kernel_size=(3, 3), stride=(1, 1), padding=(1, 1), bias=False)
          )
          (denselayer4): _DenseLayer(
            (norm1): BatchNorm2d(160, eps=1e-05, momentum=0.1, affine=True, track_running_stats=True)
            (relu1): ReLU(inplace)
            (conv1): Conv2d(160, 128, kernel_size=(1, 1), stride=(1, 1), bias=False)
            (norm2): BatchNorm2d(128, eps=1e-05, momentum=0.1, affine=True, track_running_stats=True)
            (relu2): ReLU(inplace)
            (conv2): Conv2d(128, 32, kernel_size=(3, 3), stride=(1, 1), padding=(1, 1), bias=False)
          )
          (denselayer5): _DenseLayer(
            (norm1): BatchNorm2d(192, eps=1e-05, momentum=0.1, affine=True, track_running_stats=True)
            (relu1): ReLU(inplace)
            (conv1): Conv2d(192, 128, kernel_size=(1, 1), stride=(1, 1), bias=False)
            (norm2): BatchNorm2d(128, eps=1e-05, momentum=0.1, affine=True, track_running_stats=True)
            (relu2): ReLU(inplace)
            (conv2): Conv2d(128, 32, kernel_size=(3, 3), stride=(1, 1), padding=(1, 1), bias=False)
          )
          (denselayer6): _DenseLayer(
            (norm1): BatchNorm2d(224, eps=1e-05, momentum=0.1, affine=True, track_running_stats=True)
            (relu1): ReLU(inplace)
            (conv1): Conv2d(224, 128, kernel_size=(1, 1), stride=(1, 1), bias=False)
            (norm2): BatchNorm2d(128, eps=1e-05, momentum=0.1, affine=True, track_running_stats=True)
            (relu2): ReLU(inplace)
            (conv2): Conv2d(128, 32, kernel_size=(3, 3), stride=(1, 1), padding=(1, 1), bias=False)
          )
        )
        (transition1): _Transition(
          (norm): BatchNorm2d(256, eps=1e-05, momentum=0.1, affine=True, track_running_stats=True)
          (relu): ReLU(inplace)
          (conv): Conv2d(256, 128, kernel_size=(1, 1), stride=(1, 1), bias=False)
          (pool): AvgPool2d(kernel_size=2, stride=2, padding=0)
        )
        (denseblock2): _DenseBlock(
          (denselayer1): _DenseLayer(
            (norm1): BatchNorm2d(128, eps=1e-05, momentum=0.1, affine=True, track_running_stats=True)
            (relu1): ReLU(inplace)
            (conv1): Conv2d(128, 128, kernel_size=(1, 1), stride=(1, 1), bias=False)
            (norm2): BatchNorm2d(128, eps=1e-05, momentum=0.1, affine=True, track_running_stats=True)
            (relu2): ReLU(inplace)
            (conv2): Conv2d(128, 32, kernel_size=(3, 3), stride=(1, 1), padding=(1, 1), bias=False)
          )
          (denselayer2): _DenseLayer(
            (norm1): BatchNorm2d(160, eps=1e-05, momentum=0.1, affine=True, track_running_stats=True)
            (relu1): ReLU(inplace)
            (conv1): Conv2d(160, 128, kernel_size=(1, 1), stride=(1, 1), bias=False)
            (norm2): BatchNorm2d(128, eps=1e-05, momentum=0.1, affine=True, track_running_stats=True)
            (relu2): ReLU(inplace)
            (conv2): Conv2d(128, 32, kernel_size=(3, 3), stride=(1, 1), padding=(1, 1), bias=False)
          )
          (denselayer3): _DenseLayer(
            (norm1): BatchNorm2d(192, eps=1e-05, momentum=0.1, affine=True, track_running_stats=True)
            (relu1): ReLU(inplace)
            (conv1): Conv2d(192, 128, kernel_size=(1, 1), stride=(1, 1), bias=False)
            (norm2): BatchNorm2d(128, eps=1e-05, momentum=0.1, affine=True, track_running_stats=True)
            (relu2): ReLU(inplace)
            (conv2): Conv2d(128, 32, kernel_size=(3, 3), stride=(1, 1), padding=(1, 1), bias=False)
          )
          (denselayer4): _DenseLayer(
            (norm1): BatchNorm2d(224, eps=1e-05, momentum=0.1, affine=True, track_running_stats=True)
            (relu1): ReLU(inplace)
            (conv1): Conv2d(224, 128, kernel_size=(1, 1), stride=(1, 1), bias=False)
            (norm2): BatchNorm2d(128, eps=1e-05, momentum=0.1, affine=True, track_running_stats=True)
            (relu2): ReLU(inplace)
            (conv2): Conv2d(128, 32, kernel_size=(3, 3), stride=(1, 1), padding=(1, 1), bias=False)
          )
          (denselayer5): _DenseLayer(
            (norm1): BatchNorm2d(256, eps=1e-05, momentum=0.1, affine=True, track_running_stats=True)
            (relu1): ReLU(inplace)
            (conv1): Conv2d(256, 128, kernel_size=(1, 1), stride=(1, 1), bias=False)
            (norm2): BatchNorm2d(128, eps=1e-05, momentum=0.1, affine=True, track_running_stats=True)
            (relu2): ReLU(inplace)
            (conv2): Conv2d(128, 32, kernel_size=(3, 3), stride=(1, 1), padding=(1, 1), bias=False)
          )
          (denselayer6): _DenseLayer(
            (norm1): BatchNorm2d(288, eps=1e-05, momentum=0.1, affine=True, track_running_stats=True)
            (relu1): ReLU(inplace)
            (conv1): Conv2d(288, 128, kernel_size=(1, 1), stride=(1, 1), bias=False)
            (norm2): BatchNorm2d(128, eps=1e-05, momentum=0.1, affine=True, track_running_stats=True)
            (relu2): ReLU(inplace)
            (conv2): Conv2d(128, 32, kernel_size=(3, 3), stride=(1, 1), padding=(1, 1), bias=False)
          )
          (denselayer7): _DenseLayer(
            (norm1): BatchNorm2d(320, eps=1e-05, momentum=0.1, affine=True, track_running_stats=True)
            (relu1): ReLU(inplace)
            (conv1): Conv2d(320, 128, kernel_size=(1, 1), stride=(1, 1), bias=False)
            (norm2): BatchNorm2d(128, eps=1e-05, momentum=0.1, affine=True, track_running_stats=True)
            (relu2): ReLU(inplace)
            (conv2): Conv2d(128, 32, kernel_size=(3, 3), stride=(1, 1), padding=(1, 1), bias=False)
          )
          (denselayer8): _DenseLayer(
            (norm1): BatchNorm2d(352, eps=1e-05, momentum=0.1, affine=True, track_running_stats=True)
            (relu1): ReLU(inplace)
            (conv1): Conv2d(352, 128, kernel_size=(1, 1), stride=(1, 1), bias=False)
            (norm2): BatchNorm2d(128, eps=1e-05, momentum=0.1, affine=True, track_running_stats=True)
            (relu2): ReLU(inplace)
            (conv2): Conv2d(128, 32, kernel_size=(3, 3), stride=(1, 1), padding=(1, 1), bias=False)
          )
          (denselayer9): _DenseLayer(
            (norm1): BatchNorm2d(384, eps=1e-05, momentum=0.1, affine=True, track_running_stats=True)
            (relu1): ReLU(inplace)
            (conv1): Conv2d(384, 128, kernel_size=(1, 1), stride=(1, 1), bias=False)
            (norm2): BatchNorm2d(128, eps=1e-05, momentum=0.1, affine=True, track_running_stats=True)
            (relu2): ReLU(inplace)
            (conv2): Conv2d(128, 32, kernel_size=(3, 3), stride=(1, 1), padding=(1, 1), bias=False)
          )
          (denselayer10): _DenseLayer(
            (norm1): BatchNorm2d(416, eps=1e-05, momentum=0.1, affine=True, track_running_stats=True)
            (relu1): ReLU(inplace)
            (conv1): Conv2d(416, 128, kernel_size=(1, 1), stride=(1, 1), bias=False)
            (norm2): BatchNorm2d(128, eps=1e-05, momentum=0.1, affine=True, track_running_stats=True)
            (relu2): ReLU(inplace)
            (conv2): Conv2d(128, 32, kernel_size=(3, 3), stride=(1, 1), padding=(1, 1), bias=False)
          )
          (denselayer11): _DenseLayer(
            (norm1): BatchNorm2d(448, eps=1e-05, momentum=0.1, affine=True, track_running_stats=True)
            (relu1): ReLU(inplace)
            (conv1): Conv2d(448, 128, kernel_size=(1, 1), stride=(1, 1), bias=False)
            (norm2): BatchNorm2d(128, eps=1e-05, momentum=0.1, affine=True, track_running_stats=True)
            (relu2): ReLU(inplace)
            (conv2): Conv2d(128, 32, kernel_size=(3, 3), stride=(1, 1), padding=(1, 1), bias=False)
          )
          (denselayer12): _DenseLayer(
            (norm1): BatchNorm2d(480, eps=1e-05, momentum=0.1, affine=True, track_running_stats=True)
            (relu1): ReLU(inplace)
            (conv1): Conv2d(480, 128, kernel_size=(1, 1), stride=(1, 1), bias=False)
            (norm2): BatchNorm2d(128, eps=1e-05, momentum=0.1, affine=True, track_running_stats=True)
            (relu2): ReLU(inplace)
            (conv2): Conv2d(128, 32, kernel_size=(3, 3), stride=(1, 1), padding=(1, 1), bias=False)
          )
        )
        (transition2): _Transition(
          (norm): BatchNorm2d(512, eps=1e-05, momentum=0.1, affine=True, track_running_stats=True)
          (relu): ReLU(inplace)
          (conv): Conv2d(512, 256, kernel_size=(1, 1), stride=(1, 1), bias=False)
          (pool): AvgPool2d(kernel_size=2, stride=2, padding=0)
        )
        (denseblock3): _DenseBlock(
          (denselayer1): _DenseLayer(
            (norm1): BatchNorm2d(256, eps=1e-05, momentum=0.1, affine=True, track_running_stats=True)
            (relu1): ReLU(inplace)
            (conv1): Conv2d(256, 128, kernel_size=(1, 1), stride=(1, 1), bias=False)
            (norm2): BatchNorm2d(128, eps=1e-05, momentum=0.1, affine=True, track_running_stats=True)
            (relu2): ReLU(inplace)
            (conv2): Conv2d(128, 32, kernel_size=(3, 3), stride=(1, 1), padding=(1, 1), bias=False)
          )
          (denselayer2): _DenseLayer(
            (norm1): BatchNorm2d(288, eps=1e-05, momentum=0.1, affine=True, track_running_stats=True)
            (relu1): ReLU(inplace)
            (conv1): Conv2d(288, 128, kernel_size=(1, 1), stride=(1, 1), bias=False)
            (norm2): BatchNorm2d(128, eps=1e-05, momentum=0.1, affine=True, track_running_stats=True)
            (relu2): ReLU(inplace)
            (conv2): Conv2d(128, 32, kernel_size=(3, 3), stride=(1, 1), padding=(1, 1), bias=False)
          )
          (denselayer3): _DenseLayer(
            (norm1): BatchNorm2d(320, eps=1e-05, momentum=0.1, affine=True, track_running_stats=True)
            (relu1): ReLU(inplace)
            (conv1): Conv2d(320, 128, kernel_size=(1, 1), stride=(1, 1), bias=False)
            (norm2): BatchNorm2d(128, eps=1e-05, momentum=0.1, affine=True, track_running_stats=True)
            (relu2): ReLU(inplace)
            (conv2): Conv2d(128, 32, kernel_size=(3, 3), stride=(1, 1), padding=(1, 1), bias=False)
          )
          (denselayer4): _DenseLayer(
            (norm1): BatchNorm2d(352, eps=1e-05, momentum=0.1, affine=True, track_running_stats=True)
            (relu1): ReLU(inplace)
            (conv1): Conv2d(352, 128, kernel_size=(1, 1), stride=(1, 1), bias=False)
            (norm2): BatchNorm2d(128, eps=1e-05, momentum=0.1, affine=True, track_running_stats=True)
            (relu2): ReLU(inplace)
            (conv2): Conv2d(128, 32, kernel_size=(3, 3), stride=(1, 1), padding=(1, 1), bias=False)
          )
          (denselayer5): _DenseLayer(
            (norm1): BatchNorm2d(384, eps=1e-05, momentum=0.1, affine=True, track_running_stats=True)
            (relu1): ReLU(inplace)
            (conv1): Conv2d(384, 128, kernel_size=(1, 1), stride=(1, 1), bias=False)
            (norm2): BatchNorm2d(128, eps=1e-05, momentum=0.1, affine=True, track_running_stats=True)
            (relu2): ReLU(inplace)
            (conv2): Conv2d(128, 32, kernel_size=(3, 3), stride=(1, 1), padding=(1, 1), bias=False)
          )
          (denselayer6): _DenseLayer(
            (norm1): BatchNorm2d(416, eps=1e-05, momentum=0.1, affine=True, track_running_stats=True)
            (relu1): ReLU(inplace)
            (conv1): Conv2d(416, 128, kernel_size=(1, 1), stride=(1, 1), bias=False)
            (norm2): BatchNorm2d(128, eps=1e-05, momentum=0.1, affine=True, track_running_stats=True)
            (relu2): ReLU(inplace)
            (conv2): Conv2d(128, 32, kernel_size=(3, 3), stride=(1, 1), padding=(1, 1), bias=False)
          )
          (denselayer7): _DenseLayer(
            (norm1): BatchNorm2d(448, eps=1e-05, momentum=0.1, affine=True, track_running_stats=True)
            (relu1): ReLU(inplace)
            (conv1): Conv2d(448, 128, kernel_size=(1, 1), stride=(1, 1), bias=False)
            (norm2): BatchNorm2d(128, eps=1e-05, momentum=0.1, affine=True, track_running_stats=True)
            (relu2): ReLU(inplace)
            (conv2): Conv2d(128, 32, kernel_size=(3, 3), stride=(1, 1), padding=(1, 1), bias=False)
          )
          (denselayer8): _DenseLayer(
            (norm1): BatchNorm2d(480, eps=1e-05, momentum=0.1, affine=True, track_running_stats=True)
            (relu1): ReLU(inplace)
            (conv1): Conv2d(480, 128, kernel_size=(1, 1), stride=(1, 1), bias=False)
            (norm2): BatchNorm2d(128, eps=1e-05, momentum=0.1, affine=True, track_running_stats=True)
            (relu2): ReLU(inplace)
            (conv2): Conv2d(128, 32, kernel_size=(3, 3), stride=(1, 1), padding=(1, 1), bias=False)
          )
          (denselayer9): _DenseLayer(
            (norm1): BatchNorm2d(512, eps=1e-05, momentum=0.1, affine=True, track_running_stats=True)
            (relu1): ReLU(inplace)
            (conv1): Conv2d(512, 128, kernel_size=(1, 1), stride=(1, 1), bias=False)
            (norm2): BatchNorm2d(128, eps=1e-05, momentum=0.1, affine=True, track_running_stats=True)
            (relu2): ReLU(inplace)
            (conv2): Conv2d(128, 32, kernel_size=(3, 3), stride=(1, 1), padding=(1, 1), bias=False)
          )
          (denselayer10): _DenseLayer(
            (norm1): BatchNorm2d(544, eps=1e-05, momentum=0.1, affine=True, track_running_stats=True)
            (relu1): ReLU(inplace)
            (conv1): Conv2d(544, 128, kernel_size=(1, 1), stride=(1, 1), bias=False)
            (norm2): BatchNorm2d(128, eps=1e-05, momentum=0.1, affine=True, track_running_stats=True)
            (relu2): ReLU(inplace)
            (conv2): Conv2d(128, 32, kernel_size=(3, 3), stride=(1, 1), padding=(1, 1), bias=False)
          )
          (denselayer11): _DenseLayer(
            (norm1): BatchNorm2d(576, eps=1e-05, momentum=0.1, affine=True, track_running_stats=True)
            (relu1): ReLU(inplace)
            (conv1): Conv2d(576, 128, kernel_size=(1, 1), stride=(1, 1), bias=False)
            (norm2): BatchNorm2d(128, eps=1e-05, momentum=0.1, affine=True, track_running_stats=True)
            (relu2): ReLU(inplace)
            (conv2): Conv2d(128, 32, kernel_size=(3, 3), stride=(1, 1), padding=(1, 1), bias=False)
          )
          (denselayer12): _DenseLayer(
            (norm1): BatchNorm2d(608, eps=1e-05, momentum=0.1, affine=True, track_running_stats=True)
            (relu1): ReLU(inplace)
            (conv1): Conv2d(608, 128, kernel_size=(1, 1), stride=(1, 1), bias=False)
            (norm2): BatchNorm2d(128, eps=1e-05, momentum=0.1, affine=True, track_running_stats=True)
            (relu2): ReLU(inplace)
            (conv2): Conv2d(128, 32, kernel_size=(3, 3), stride=(1, 1), padding=(1, 1), bias=False)
          )
          (denselayer13): _DenseLayer(
            (norm1): BatchNorm2d(640, eps=1e-05, momentum=0.1, affine=True, track_running_stats=True)
            (relu1): ReLU(inplace)
            (conv1): Conv2d(640, 128, kernel_size=(1, 1), stride=(1, 1), bias=False)
            (norm2): BatchNorm2d(128, eps=1e-05, momentum=0.1, affine=True, track_running_stats=True)
            (relu2): ReLU(inplace)
            (conv2): Conv2d(128, 32, kernel_size=(3, 3), stride=(1, 1), padding=(1, 1), bias=False)
          )
          (denselayer14): _DenseLayer(
            (norm1): BatchNorm2d(672, eps=1e-05, momentum=0.1, affine=True, track_running_stats=True)
            (relu1): ReLU(inplace)
            (conv1): Conv2d(672, 128, kernel_size=(1, 1), stride=(1, 1), bias=False)
            (norm2): BatchNorm2d(128, eps=1e-05, momentum=0.1, affine=True, track_running_stats=True)
            (relu2): ReLU(inplace)
            (conv2): Conv2d(128, 32, kernel_size=(3, 3), stride=(1, 1), padding=(1, 1), bias=False)
          )
          (denselayer15): _DenseLayer(
            (norm1): BatchNorm2d(704, eps=1e-05, momentum=0.1, affine=True, track_running_stats=True)
            (relu1): ReLU(inplace)
            (conv1): Conv2d(704, 128, kernel_size=(1, 1), stride=(1, 1), bias=False)
            (norm2): BatchNorm2d(128, eps=1e-05, momentum=0.1, affine=True, track_running_stats=True)
            (relu2): ReLU(inplace)
            (conv2): Conv2d(128, 32, kernel_size=(3, 3), stride=(1, 1), padding=(1, 1), bias=False)
          )
          (denselayer16): _DenseLayer(
            (norm1): BatchNorm2d(736, eps=1e-05, momentum=0.1, affine=True, track_running_stats=True)
            (relu1): ReLU(inplace)
            (conv1): Conv2d(736, 128, kernel_size=(1, 1), stride=(1, 1), bias=False)
            (norm2): BatchNorm2d(128, eps=1e-05, momentum=0.1, affine=True, track_running_stats=True)
            (relu2): ReLU(inplace)
            (conv2): Conv2d(128, 32, kernel_size=(3, 3), stride=(1, 1), padding=(1, 1), bias=False)
          )
          (denselayer17): _DenseLayer(
            (norm1): BatchNorm2d(768, eps=1e-05, momentum=0.1, affine=True, track_running_stats=True)
            (relu1): ReLU(inplace)
            (conv1): Conv2d(768, 128, kernel_size=(1, 1), stride=(1, 1), bias=False)
            (norm2): BatchNorm2d(128, eps=1e-05, momentum=0.1, affine=True, track_running_stats=True)
            (relu2): ReLU(inplace)
            (conv2): Conv2d(128, 32, kernel_size=(3, 3), stride=(1, 1), padding=(1, 1), bias=False)
          )
          (denselayer18): _DenseLayer(
            (norm1): BatchNorm2d(800, eps=1e-05, momentum=0.1, affine=True, track_running_stats=True)
            (relu1): ReLU(inplace)
            (conv1): Conv2d(800, 128, kernel_size=(1, 1), stride=(1, 1), bias=False)
            (norm2): BatchNorm2d(128, eps=1e-05, momentum=0.1, affine=True, track_running_stats=True)
            (relu2): ReLU(inplace)
            (conv2): Conv2d(128, 32, kernel_size=(3, 3), stride=(1, 1), padding=(1, 1), bias=False)
          )
          (denselayer19): _DenseLayer(
            (norm1): BatchNorm2d(832, eps=1e-05, momentum=0.1, affine=True, track_running_stats=True)
            (relu1): ReLU(inplace)
            (conv1): Conv2d(832, 128, kernel_size=(1, 1), stride=(1, 1), bias=False)
            (norm2): BatchNorm2d(128, eps=1e-05, momentum=0.1, affine=True, track_running_stats=True)
            (relu2): ReLU(inplace)
            (conv2): Conv2d(128, 32, kernel_size=(3, 3), stride=(1, 1), padding=(1, 1), bias=False)
          )
          (denselayer20): _DenseLayer(
            (norm1): BatchNorm2d(864, eps=1e-05, momentum=0.1, affine=True, track_running_stats=True)
            (relu1): ReLU(inplace)
            (conv1): Conv2d(864, 128, kernel_size=(1, 1), stride=(1, 1), bias=False)
            (norm2): BatchNorm2d(128, eps=1e-05, momentum=0.1, affine=True, track_running_stats=True)
            (relu2): ReLU(inplace)
            (conv2): Conv2d(128, 32, kernel_size=(3, 3), stride=(1, 1), padding=(1, 1), bias=False)
          )
          (denselayer21): _DenseLayer(
            (norm1): BatchNorm2d(896, eps=1e-05, momentum=0.1, affine=True, track_running_stats=True)
            (relu1): ReLU(inplace)
            (conv1): Conv2d(896, 128, kernel_size=(1, 1), stride=(1, 1), bias=False)
            (norm2): BatchNorm2d(128, eps=1e-05, momentum=0.1, affine=True, track_running_stats=True)
            (relu2): ReLU(inplace)
            (conv2): Conv2d(128, 32, kernel_size=(3, 3), stride=(1, 1), padding=(1, 1), bias=False)
          )
          (denselayer22): _DenseLayer(
            (norm1): BatchNorm2d(928, eps=1e-05, momentum=0.1, affine=True, track_running_stats=True)
            (relu1): ReLU(inplace)
            (conv1): Conv2d(928, 128, kernel_size=(1, 1), stride=(1, 1), bias=False)
            (norm2): BatchNorm2d(128, eps=1e-05, momentum=0.1, affine=True, track_running_stats=True)
            (relu2): ReLU(inplace)
            (conv2): Conv2d(128, 32, kernel_size=(3, 3), stride=(1, 1), padding=(1, 1), bias=False)
          )
          (denselayer23): _DenseLayer(
            (norm1): BatchNorm2d(960, eps=1e-05, momentum=0.1, affine=True, track_running_stats=True)
            (relu1): ReLU(inplace)
            (conv1): Conv2d(960, 128, kernel_size=(1, 1), stride=(1, 1), bias=False)
            (norm2): BatchNorm2d(128, eps=1e-05, momentum=0.1, affine=True, track_running_stats=True)
            (relu2): ReLU(inplace)
            (conv2): Conv2d(128, 32, kernel_size=(3, 3), stride=(1, 1), padding=(1, 1), bias=False)
          )
          (denselayer24): _DenseLayer(
            (norm1): BatchNorm2d(992, eps=1e-05, momentum=0.1, affine=True, track_running_stats=True)
            (relu1): ReLU(inplace)
            (conv1): Conv2d(992, 128, kernel_size=(1, 1), stride=(1, 1), bias=False)
            (norm2): BatchNorm2d(128, eps=1e-05, momentum=0.1, affine=True, track_running_stats=True)
            (relu2): ReLU(inplace)
            (conv2): Conv2d(128, 32, kernel_size=(3, 3), stride=(1, 1), padding=(1, 1), bias=False)
          )
        )
        (transition3): _Transition(
          (norm): BatchNorm2d(1024, eps=1e-05, momentum=0.1, affine=True, track_running_stats=True)
          (relu): ReLU(inplace)
          (conv): Conv2d(1024, 512, kernel_size=(1, 1), stride=(1, 1), bias=False)
          (pool): AvgPool2d(kernel_size=2, stride=2, padding=0)
        )
        (denseblock4): _DenseBlock(
          (denselayer1): _DenseLayer(
            (norm1): BatchNorm2d(512, eps=1e-05, momentum=0.1, affine=True, track_running_stats=True)
            (relu1): ReLU(inplace)
            (conv1): Conv2d(512, 128, kernel_size=(1, 1), stride=(1, 1), bias=False)
            (norm2): BatchNorm2d(128, eps=1e-05, momentum=0.1, affine=True, track_running_stats=True)
            (relu2): ReLU(inplace)
            (conv2): Conv2d(128, 32, kernel_size=(3, 3), stride=(1, 1), padding=(1, 1), bias=False)
          )
          (denselayer2): _DenseLayer(
            (norm1): BatchNorm2d(544, eps=1e-05, momentum=0.1, affine=True, track_running_stats=True)
            (relu1): ReLU(inplace)
            (conv1): Conv2d(544, 128, kernel_size=(1, 1), stride=(1, 1), bias=False)
            (norm2): BatchNorm2d(128, eps=1e-05, momentum=0.1, affine=True, track_running_stats=True)
            (relu2): ReLU(inplace)
            (conv2): Conv2d(128, 32, kernel_size=(3, 3), stride=(1, 1), padding=(1, 1), bias=False)
          )
          (denselayer3): _DenseLayer(
            (norm1): BatchNorm2d(576, eps=1e-05, momentum=0.1, affine=True, track_running_stats=True)
            (relu1): ReLU(inplace)
            (conv1): Conv2d(576, 128, kernel_size=(1, 1), stride=(1, 1), bias=False)
            (norm2): BatchNorm2d(128, eps=1e-05, momentum=0.1, affine=True, track_running_stats=True)
            (relu2): ReLU(inplace)
            (conv2): Conv2d(128, 32, kernel_size=(3, 3), stride=(1, 1), padding=(1, 1), bias=False)
          )
          (denselayer4): _DenseLayer(
            (norm1): BatchNorm2d(608, eps=1e-05, momentum=0.1, affine=True, track_running_stats=True)
            (relu1): ReLU(inplace)
            (conv1): Conv2d(608, 128, kernel_size=(1, 1), stride=(1, 1), bias=False)
            (norm2): BatchNorm2d(128, eps=1e-05, momentum=0.1, affine=True, track_running_stats=True)
            (relu2): ReLU(inplace)
            (conv2): Conv2d(128, 32, kernel_size=(3, 3), stride=(1, 1), padding=(1, 1), bias=False)
          )
          (denselayer5): _DenseLayer(
            (norm1): BatchNorm2d(640, eps=1e-05, momentum=0.1, affine=True, track_running_stats=True)
            (relu1): ReLU(inplace)
            (conv1): Conv2d(640, 128, kernel_size=(1, 1), stride=(1, 1), bias=False)
            (norm2): BatchNorm2d(128, eps=1e-05, momentum=0.1, affine=True, track_running_stats=True)
            (relu2): ReLU(inplace)
            (conv2): Conv2d(128, 32, kernel_size=(3, 3), stride=(1, 1), padding=(1, 1), bias=False)
          )
          (denselayer6): _DenseLayer(
            (norm1): BatchNorm2d(672, eps=1e-05, momentum=0.1, affine=True, track_running_stats=True)
            (relu1): ReLU(inplace)
            (conv1): Conv2d(672, 128, kernel_size=(1, 1), stride=(1, 1), bias=False)
            (norm2): BatchNorm2d(128, eps=1e-05, momentum=0.1, affine=True, track_running_stats=True)
            (relu2): ReLU(inplace)
            (conv2): Conv2d(128, 32, kernel_size=(3, 3), stride=(1, 1), padding=(1, 1), bias=False)
          )
          (denselayer7): _DenseLayer(
            (norm1): BatchNorm2d(704, eps=1e-05, momentum=0.1, affine=True, track_running_stats=True)
            (relu1): ReLU(inplace)
            (conv1): Conv2d(704, 128, kernel_size=(1, 1), stride=(1, 1), bias=False)
            (norm2): BatchNorm2d(128, eps=1e-05, momentum=0.1, affine=True, track_running_stats=True)
            (relu2): ReLU(inplace)
            (conv2): Conv2d(128, 32, kernel_size=(3, 3), stride=(1, 1), padding=(1, 1), bias=False)
          )
          (denselayer8): _DenseLayer(
            (norm1): BatchNorm2d(736, eps=1e-05, momentum=0.1, affine=True, track_running_stats=True)
            (relu1): ReLU(inplace)
            (conv1): Conv2d(736, 128, kernel_size=(1, 1), stride=(1, 1), bias=False)
            (norm2): BatchNorm2d(128, eps=1e-05, momentum=0.1, affine=True, track_running_stats=True)
            (relu2): ReLU(inplace)
            (conv2): Conv2d(128, 32, kernel_size=(3, 3), stride=(1, 1), padding=(1, 1), bias=False)
          )
          (denselayer9): _DenseLayer(
            (norm1): BatchNorm2d(768, eps=1e-05, momentum=0.1, affine=True, track_running_stats=True)
            (relu1): ReLU(inplace)
            (conv1): Conv2d(768, 128, kernel_size=(1, 1), stride=(1, 1), bias=False)
            (norm2): BatchNorm2d(128, eps=1e-05, momentum=0.1, affine=True, track_running_stats=True)
            (relu2): ReLU(inplace)
            (conv2): Conv2d(128, 32, kernel_size=(3, 3), stride=(1, 1), padding=(1, 1), bias=False)
          )
          (denselayer10): _DenseLayer(
            (norm1): BatchNorm2d(800, eps=1e-05, momentum=0.1, affine=True, track_running_stats=True)
            (relu1): ReLU(inplace)
            (conv1): Conv2d(800, 128, kernel_size=(1, 1), stride=(1, 1), bias=False)
            (norm2): BatchNorm2d(128, eps=1e-05, momentum=0.1, affine=True, track_running_stats=True)
            (relu2): ReLU(inplace)
            (conv2): Conv2d(128, 32, kernel_size=(3, 3), stride=(1, 1), padding=(1, 1), bias=False)
          )
          (denselayer11): _DenseLayer(
            (norm1): BatchNorm2d(832, eps=1e-05, momentum=0.1, affine=True, track_running_stats=True)
            (relu1): ReLU(inplace)
            (conv1): Conv2d(832, 128, kernel_size=(1, 1), stride=(1, 1), bias=False)
            (norm2): BatchNorm2d(128, eps=1e-05, momentum=0.1, affine=True, track_running_stats=True)
            (relu2): ReLU(inplace)
            (conv2): Conv2d(128, 32, kernel_size=(3, 3), stride=(1, 1), padding=(1, 1), bias=False)
          )
          (denselayer12): _DenseLayer(
            (norm1): BatchNorm2d(864, eps=1e-05, momentum=0.1, affine=True, track_running_stats=True)
            (relu1): ReLU(inplace)
            (conv1): Conv2d(864, 128, kernel_size=(1, 1), stride=(1, 1), bias=False)
            (norm2): BatchNorm2d(128, eps=1e-05, momentum=0.1, affine=True, track_running_stats=True)
            (relu2): ReLU(inplace)
            (conv2): Conv2d(128, 32, kernel_size=(3, 3), stride=(1, 1), padding=(1, 1), bias=False)
          )
          (denselayer13): _DenseLayer(
            (norm1): BatchNorm2d(896, eps=1e-05, momentum=0.1, affine=True, track_running_stats=True)
            (relu1): ReLU(inplace)
            (conv1): Conv2d(896, 128, kernel_size=(1, 1), stride=(1, 1), bias=False)
            (norm2): BatchNorm2d(128, eps=1e-05, momentum=0.1, affine=True, track_running_stats=True)
            (relu2): ReLU(inplace)
            (conv2): Conv2d(128, 32, kernel_size=(3, 3), stride=(1, 1), padding=(1, 1), bias=False)
          )
          (denselayer14): _DenseLayer(
            (norm1): BatchNorm2d(928, eps=1e-05, momentum=0.1, affine=True, track_running_stats=True)
            (relu1): ReLU(inplace)
            (conv1): Conv2d(928, 128, kernel_size=(1, 1), stride=(1, 1), bias=False)
            (norm2): BatchNorm2d(128, eps=1e-05, momentum=0.1, affine=True, track_running_stats=True)
            (relu2): ReLU(inplace)
            (conv2): Conv2d(128, 32, kernel_size=(3, 3), stride=(1, 1), padding=(1, 1), bias=False)
          )
          (denselayer15): _DenseLayer(
            (norm1): BatchNorm2d(960, eps=1e-05, momentum=0.1, affine=True, track_running_stats=True)
            (relu1): ReLU(inplace)
            (conv1): Conv2d(960, 128, kernel_size=(1, 1), stride=(1, 1), bias=False)
            (norm2): BatchNorm2d(128, eps=1e-05, momentum=0.1, affine=True, track_running_stats=True)
            (relu2): ReLU(inplace)
            (conv2): Conv2d(128, 32, kernel_size=(3, 3), stride=(1, 1), padding=(1, 1), bias=False)
          )
          (denselayer16): _DenseLayer(
            (norm1): BatchNorm2d(992, eps=1e-05, momentum=0.1, affine=True, track_running_stats=True)
            (relu1): ReLU(inplace)
            (conv1): Conv2d(992, 128, kernel_size=(1, 1), stride=(1, 1), bias=False)
            (norm2): BatchNorm2d(128, eps=1e-05, momentum=0.1, affine=True, track_running_stats=True)
            (relu2): ReLU(inplace)
            (conv2): Conv2d(128, 32, kernel_size=(3, 3), stride=(1, 1), padding=(1, 1), bias=False)
          )
        )
        (norm5): BatchNorm2d(1024, eps=1e-05, momentum=0.1, affine=True, track_running_stats=True)
      )
      (classifier): Linear(in_features=1024, out_features=2, bias=True)
    )


Load Data
---------

Now that we know what the input size must be, we can initialize the data
transforms and the dataloaders. Notice, the models were pretrained with
these normalization values, as described
`here <https://pytorch.org/docs/master/torchvision/models.html>`__. This
code is mostly from the transfer learning tutorial.




.. code-block:: python
…
